heat_equation discontinuous path1.pt (torch, 8059 bytes, 7 tensors)

hidden1.weight f4 [20, 2]
000000 54 82 91 3f 3d cb b7 3f 8d 5d af bd b1 52 bb 3f
       1.1367898 1.4358898 -0.08562765 1.463461
000010 21 4b a0 be 6f 62 43 bf 90 36 62 bf 80 0c 69 3f
       -0.3130732 -0.7632207 -0.88364506 0.910347
000020 ea 85 ab 3d c0 aa 37 3e dd c4 a1 3f a2 42 93 be
       0.083751515 0.1793623 1.2638203 -0.28761774
000030 0a b0 88 3f 01 82 f8 3d 7e 63 1f 3f b3 cc 47 bf
       1.0678723 0.12134171 0.6226119 -0.7804672
000040 91 07 b4 3f 31 9a 83 3e 0d 4e b3 be 79 3b b5 3f
       1.4064809 0.25703576 -0.35020486 1.4158775
000050 84 05 1b bf dc 3d bb bf cb ca 9a bf e2 8a 17 bf
       -0.6055529 -1.4628253 -1.2093138 -0.59196293
000060 14 23 aa bf 64 f7 81 bf c8 b7 a9 be 2a 1f af be
       -1.3291955 -1.0153623 -0.33148026 -0.34203464
000070 42 02 c8 3d 2c 91 d7 bf 9a 91 8a 3f 80 c9 b1 bf
       0.09766056 -1.6841178 1.0825684 -1.3889618
000080 43 31 a2 3f 2f 4b 92 3e 78 8b b3 be 1f 09 44 3f
       1.2671283 0.28572986 -0.35067344 0.7657642
000090 d6 ec 39 3e d4 e8 62 3f 88 c0 a8 3d df c6 b5 bf
       0.18156752 0.8863652 0.082398474 -1.4201316

hidden1.bias f4 [20]
000000 32 ec 57 3e 66 98 80 3d 42 2f 14 3e a9 60 ed 3d
       0.21086195 0.06279068 0.14471152 0.11590702
000010 d4 e7 23 3f a5 44 21 be 42 a7 24 3d 03 d0 30 be
       0.64025617 -0.15748842 0.040198572 -0.1726685
000020 c9 e9 33 3e a9 70 92 3d a4 91 4d bd 5b 5c 6a 3e
       0.1756965 0.071503945 -0.05018772 0.22886793
000030 ee 10 66 be 56 0c e0 3e 55 39 0d bd 92 f5 6d 3d
       -0.22467396 0.43759412 -0.034478504 0.058095522
000040 4f 1a cb bd d7 28 35 3d 06 56 07 3e 2d c2 50 be
       -0.09917127 0.0442284 0.13216409 -0.20386572

hidden2.weight f4 [20, 20]
000000 94 1d 91 bd af 5a 15 be f4 f0 1c 3e 86 4a 12 bd
       -0.0708572 -0.14585374 0.15326291 -0.035715602
000010 35 ec 84 3d 26 7a 2f be b0 1d 0a 3e 97 60 26 be
       0.064903654 -0.1713644 0.13487887 -0.16247784
000020 ad 09 83 be c2 2a 0a be 10 29 22 3e ea 62 20 3e
       -0.2559332 -0.13492873 0.15835977 0.15662733
000030 a6 41 8e 3e c6 81 74 bd 5c ea 4f be 55 8b f6 bd
       0.2778446 -0.059694074 -0.20304245 -0.12038294
000040 e3 6f 5f be fe 01 f6 3d 9a 92 fa 3d 54 76 04 3e
       -0.21820025 0.12012099 0.12234993 0.12935764
000050 5a 19 b3 bd 06 49 26 be 48 d5 c7 3d 9e f6 cb bd
       -0.0874507 -0.16238794 0.09757477 -0.09959148
000060 a5 4b 36 3e d0 45 35 bd 62 d4 2d 3e 8b d9 15 be
       0.17802294 -0.04425603 0.16975549 -0.14633767
000070 6f e8 91 bd 0c eb 5a 3c eb 91 8f 3c bd df cb bd
       -0.07124411 0.013361704 0.017525634 -0.09954784
000080 18 23 ac 3d cd ab f9 3d 79 a5 12 be e2 44 bb bd
       0.08405131 0.121909715 -0.14320935 -0.09143998
000090 7e 2e 7c 3e 7a 56 bf bd d5 25 a2 bc d5 f8 44 be
       0.2462711 -0.09342666 -0.01979343 -0.19235547
0000a0 47 36 1f bf 40 13 0d bf 5e f8 87 3e 86 27 64 be
       -0.62192196 -0.551075 0.26556677 -0.22280702
0000b0 19 a6 09 3e e4 4d 38 bf f4 d1 c6 bd 52 dd 5a be
       0.13442267 -0.7199385 -0.09708014 -0.2137349
0000c0 75 0d e5 be 9a f9 30 bf 13 26 17 3f d1 5f e6 3e
       -0.4473683 -0.6913086 0.5904247 0.44994977
0000d0 38 bc ae 3e 66 85 23 3e a9 93 f6 3e 47 b2 b5 3e
       0.34127975 0.15968856 0.4815953 0.35487577
0000e0 3b 57 86 be 3c cb 05 bf 73 31 76 be cc fc 04 3e
       -0.26238427 -0.52263236 -0.24042301 0.1298706
0000f0 c2 ad c9 bb d4 2b af bd 11 cb e5 3c 24 1f 2c bd
       -0.0061547467 -0.085532814 0.028050931 -0.042021886
000100 42 23 f7 bd 07 be 87 be 3c 45 dd bd 7d 89 8a be
       -0.12067272 -0.26512167 -0.10804221 -0.2705802
000110 5e 25 04 3e 0a 43 91 bd 85 b5 35 3e a5 64 4d 3e
       0.1290488 -0.07092865 0.17745025 0.20057924
000120 82 26 59 be 8d 1a a6 3e 28 19 82 bd c1 20 17 be
       -0.21206096 0.32442132 -0.063524544 -0.14758588
000130 ca 4c 90 be 8a 70 29 be 1f 15 c9 3d ba 0e 09 be
       -0.28183585 -0.16546836 0.09818482 -0.13384524
000140 16 f7 3b 3e b7 7b 4f bf 0f 53 cb 3e 7b 3e 45 bf
       0.18355975 -0.8104815 0.39711806 -0.7704846
000150 12 fc 07 3e cd 04 b4 3e 88 69 95 3e 9f 84 14 3f
       0.13279751 0.35159913 0.29182076 0.58014864
000160 89 91 26 3f 40 7d 2b bf ea b5 4f 3f 24 c0 e1 3e
       0.6506582 -0.6698799 0.81136954 0.44091904
000170 58 a5 29 be 5d 0f d9 be 67 c6 7e 3f dd 58 3b 3f
       -0.1656698 -0.42394534 0.9952149 0.7318247
000180 e2 66 b0 bd b0 8c 38 bf 32 aa 03 bf 86 f3 09 3f
       -0.08613373 -0.7208967 -0.5143157 0.5388721
000190 de 94 47 3e 4c 87 4c 3d c8 52 8f 3c 34 9f 4c be
       0.19490382 0.049933717 0.017495528 -0.19982606
0001a0 a6 04 ba 3d 73 a5 2f bd c7 ce ef bd 5e fc 3f 3e
       0.09082918 -0.042882394 -0.117093615 0.18748614
0001b0 87 1b 10 3d 20 fd 7e bd 1e cb d8 bd 31 88 5a 3c
       0.035182502 -0.062253118 -0.105856165 0.013338135
0001c0 58 06 14 3e b9 60 81 bd 53 7e 15 be 89 6a de bd
       0.14455545 -0.063172765 -0.1459897 -0.10860164
0001d0 22 e7 41 be 91 43 b9 3d f9 6f 1d 3e 10 4a 6f be
       -0.18935826 0.090460904 0.15374745 -0.23368096
0001e0 8b 62 80 3c b6 5c cb 3d 31 52 cb 3c 2b f4 f5 bd
       0.015671989 0.099297926 0.024819465 -0.12009462
0001f0 e0 8b 59 3d e7 10 20 3e 88 2a 97 3d 1e d8 0e 3b
       0.05311191 0.15631448 0.07381159 0.0021796296
000200 3b 57 af bd 74 85 6f 3d 7e 34 56 bd 72 da b2 bd
       -0.0856156 0.05847688 -0.052296154 -0.087330714
000210 fd bf 50 3e ba 99 ef 3d b4 89 86 bc a2 c6 6a bd
       0.20385738 0.11699243 -0.016423084 -0.057318337
000220 33 f7 07 3c fd 17 1c bd e5 5b fb 3a 31 1b 92 3d
       0.008298683 -0.038108815 0.0019177167 0.071340926
000230 93 40 21 be 49 d4 12 be 42 b7 22 3e 7c 43 09 3d
       -0.1574729 -0.14338793 0.1589022 0.033511624
000240 c1 96 31 3c 34 4f bd bd 9f af e5 bd 07 24 1f be
       0.010839165 -0.092436224 -0.11215138 -0.15541087
000250 4a f9 e9 bc db ac 65 3d da 6f 0f 3e 70 cc c9 3d
       -0.028561253 0.05607305 0.14007512 0.098534465
000260 a8 74 71 be b0 94 28 be 06 91 c8 3c df ab 8b 3e
       -0.23579657 -0.1646297 0.024483215 0.27279565
000270 22 86 4c 3d 62 ed bf bd 46 16 e2 3d a8 e7 46 bd
       0.049932607 -0.09371449 0.110394046 -0.04856077
000280 e6 03 ce bd 58 05 9a 3d b1 2b 14 be f0 95 43 be
       -0.10059337 0.075205505 -0.14469792 -0.19100165
000290 0b 41 5f be 15 fb 8a 3e 50 17 80 3e fd c9 6a 3e
       -0.21802156 0.27144685 0.25017786 0.22928615
0002a0 43 e9 a9 bd e8 45 bf be 1c 23 4b be 88 5e 66 3d
       -0.08296444 -0.37358022 -0.19837612 0.056242496
0002b0 5f b7 61 3d 36 c6 be 3d 58 a4 5f 3e fb 2c 5d 3e
       0.055106517 0.093151495 0.21840036 0.2159919
0002c0 c5 45 ca 3d 92 40 80 be a7 5c 41 be 5b 60 d1 bd
       0.09876589 -0.25049263 -0.18883 -0.102234565
0002d0 f7 81 68 3d fa fe 8f bd 6a 30 47 bc 48 69 b8 bd
       0.05676457 -0.07031055 -0.012157539 -0.09004456
0002e0 94 5b 54 bd 76 17 35 be 6b 0c 1e be c2 fb 41 3d
       -0.05184515 -0.17684731 -0.15434425 0.047359236
0002f0 3a df bd bd 57 7e 12 3e 50 2e 83 bd c5 ec 2d be
       -0.09271093 0.14306007 -0.06405318 -0.16984852
000300 cb 8c bf bc e1 6e 91 bd 1e 34 c7 bd 86 3e 6f be
       -0.023382565 -0.071012266 -0.097267374 -0.23363695
000310 18 32 fe 3d 39 5f 11 be 1f ac ce 3d 03 87 97 3d
       0.124118984 -0.14196481 0.10091423 0.07398798
000320 3f 59 29 3e c8 9d f1 bd 50 c6 20 3e c4 77 96 bd
       0.16537951 -0.117976725 0.1570065 -0.07347062
000330 0d ba bd 3d d3 11 2c 3e b0 f7 38 bd af 83 a3 bc
       0.09264002 0.16803674 -0.04515809 -0.019960253
000340 6c 22 85 bd ab e3 5b be ff 29 d7 3d 69 86 5c be
       -0.06500706 -0.21473567 0.10506057 -0.21535648
000350 9c 2a 06 3e c0 6e 36 3e 27 e5 24 3e 7e 59 75 bd
       0.13102192 0.17815685 0.1610304 -0.0598998
000360 2b ef 45 be ed d9 82 3d 9f 41 0f 3e 72 90 84 be
       -0.19329517 0.06389222 0.13989876 -0.25891453
000370 ef 4d e6 3c dd a7 46 be 2e b6 c6 bd 17 c8 48 be
       0.028113334 -0.19399972 -0.09702717 -0.19607578
000380 13 a0 ae bd d4 8d 2b 3d 4b a2 4f be 4e 51 a1 3e
       -0.085266255 0.041883305 -0.20276754 0.31507343
000390 5e 16 76 3e b0 fe d3 bd f7 ea 40 3b 2d ed 26 bd
       0.2403197 -0.10351312 0.0029436925 -0.040753532
0003a0 f0 9b 7a be e9 37 7d be 91 80 29 3e 04 f6 20 be
       -0.24473548 -0.2472836 0.1655295 -0.15718848
0003b0 a9 2c 0d be 68 17 85 be bf 36 f0 bd cd 12 b3 3c
       -0.13786568 -0.2599442 -0.11729192 0.02185955
0003c0 40 b7 af 3d b1 a6 3a be ae 42 8c bd 09 1e 7b be
       0.08579874 -0.1822765 -0.06848656 -0.24523176
0003d0 19 33 03 be 9a 79 bd 3e d3 08 24 3d 68 75 44 3e
       -0.12812461 0.37006837 0.040047478 0.19185412
0003e0 ad ca eb 3c b4 ce 8d be ee af 2b 3e f0 96 6e ba
       0.028783167 -0.27696764 0.1676633 -0.0009101471
0003f0 b2 a4 98 be ba 7e 2f 3d dd 1a c4 3e 01 8b 51 3e
       -0.29813153 0.042845465 0.38301745 0.20463182

hidden2.bias f4 [20]
000000 c3 89 ab 3d 70 b2 d1 3d 1d 23 ac 3e 79 81 44 bd
       0.08375885 0.102391124 0.3362054 -0.047975037
000010 e5 6c 8c 3c fd 3b 0b be e5 cd 86 be 16 2f 4c be
       0.017141769 -0.13597102 -0.2632896 -0.19939837
000020 20 cc ce 3d 44 c5 98 3e b8 82 9e 3e a2 2f 1b 3d
       0.100975275 0.29838002 0.30959105 0.037887223
000030 b0 f0 0f 3e 6c a7 9d bd 29 9b 55 bd 2b c3 01 3e
       0.14056659 -0.07697949 -0.052149925 0.12672107
000040 d4 ce 3d be 40 0a 89 bd f4 a5 08 bd 07 9d 13 bd
       -0.1853593 -0.06691408 -0.03336139 -0.036038425

hidden3.weight f4 [20, 20]
000000 cd d8 db 3d 33 1d 9e bd 44 c4 f1 bd c7 c8 2a bc
       0.10734711 -0.07720413 -0.11805013 -0.010423846
000010 cc 95 2c be c6 01 05 be ff f8 84 3d e5 53 61 bc
       -0.16854018 -0.12988958 0.06492805 -0.013752912
000020 de 84 93 3e 14 85 79 3e 6c 92 7c 3d 38 2b b4 3d
       0.28812307 0.24367172 0.061663076 0.08797306
000030 c5 33 f1 3d be 55 97 ba 5a d2 d8 bc b7 ef 73 3d
       0.117774524 -0.0011545939 -0.026467491 0.05955478
000040 4c 8f 51 3c 3d 29 51 3e 6c a2 98 bd 6a 0f 49 bd
       0.012790512 0.20425887 -0.074528545 -0.049086966
000050 e8 39 0b bd 79 c6 9a bd 75 f2 50 3d 57 49 31 3e
       -0.03399077 -0.07557387 0.051012475 0.17313133
000060 02 b9 08 3e bc cd cd 3d 4b 31 69 be e5 07 e8 bd
       0.13351825 0.10049006 -0.2277271 -0.11329631
000070 16 1c a7 3c 6d 1a 0c bd bd db b9 3d dc 97 74 be
       0.020399135 -0.03420489 0.09075115 -0.23886055
000080 08 13 00 3e 64 14 28 be 19 a7 03 be 96 9f f0 bd
       0.1250726 -0.16414028 -0.12856711 -0.117491886
000090 31 da 3d 3e 11 13 43 be a0 d1 45 3e 8d a9 a9 3c
       0.18540265 -0.19050242 0.19318247 0.02071073
0000a0 3f 7d 0f bd 84 57 0e 3e 84 7a 9a bc b4 b2 de 3d
       -0.035031553 0.13900572 -0.018857248 0.10873929
0000b0 85 2b 04 3e 5e cb 47 be b0 e3 c4 3c a3 0d a5 3d
       0.12907226 -0.19511172 0.024034351 0.080592416
0000c0 43 ea 00 3e 38 38 bc 3c 70 0d e5 3d 1c cd dd bd
       0.12589364 0.022976026 0.111842036 -0.10830137
0000d0 ad e2 2c 3d 43 c7 4f 3e 1f c4 0b 3e 11 eb 3c 3d
       0.042208362 0.20290856 0.13649033 0.046122614
0000e0 e6 00 68 be 3b 47 1e 3c cc 22 29 be d3 4a 72 3e
       -0.22656593 0.009660537 -0.1651718 0.23661356
0000f0 26 fe e2 bd b0 7c 6c 3b 9c ce ee bb bd 58 1a 3d
       -0.11083631 0.0036085062 -0.0072878134 0.037682284
000100 2a b4 09 3e 3e 39 0d bd 4a 91 53 3d d1 84 51 3e
       0.13447633 -0.03447842 0.05165223 0.20460822
000110 94 c0 88 3e 37 1f b7 bd 82 3b 00 3d 52 e6 8e 3d
       0.26709425 -0.08941501 0.03130675 0.06977524
000120 4a 64 26 bc 2a 1a f3 3d 3d f6 09 bd fc c0 8c bd
       -0.010155747 0.11870225 -0.033682097 -0.06872746
000130 f8 c0 d2 3d 3a dd 67 3d 0b 26 fb 3d 82 58 82 3e
       0.10290712 0.056607462 0.122631155 0.2545815
000140 e5 4a 17 3e 6b 80 63 3e c1 c0 8b 3d b6 43 61 be
       0.14774664 0.22216956 0.06823874 -0.21998486
000150 fa 48 7f be 56 ed 25 be 31 f6 7a be c6 eb 01 be
       -0.24930182 -0.16203818 -0.24507977 -0.12687597
000160 a7 29 25 be ad 0d 3c be 9f bd b6 bd 01 63 7a be
       -0.1612917 -0.18364592 -0.08922886 -0.2445183
000170 79 f8 d2 bd af 71 91 3d ae 98 33 3e e8 23 11 3d
       -0.10301299 0.071017615 0.17538711 0.035434633
000180 59 0e 99 bd 51 6c 04 3e 6b 7d f3 bd a4 36 30 bd
       -0.0747344 0.12931944 -0.11889156 -0.04302086
000190 c4 1f 1e 3e 28 5a 36 be 36 9a 7a 3d 1b 19 3f 3e
       0.15441805 -0.1780783 0.061182223 0.1866192
0001a0 2d 73 3f bc fc 38 4a 3d 83 c3 3d be 67 71 2f bb
       -0.011685175 0.04937075 -0.18531613 -0.0026770474
0001b0 73 0b a9 3d fb db 7c 3d 3b 55 f7 3d 31 da 2c 3e
       0.08254137 0.061733227 0.12076803 0.16880108
0001c0 71 e7 f3 bd 5a e5 60 3c 85 91 d0 bd df 73 e6 bd
       -0.11909378 0.013726557 -0.10184006 -0.112525694
0001d0 a7 66 14 bd 75 a5 39 be 03 59 2e 3e eb b0 52 3d
       -0.03623071 -0.18129523 0.17026143 0.051438253
0001e0 3f c4 29 be a6 5d e5 3d 64 1e 96 be d7 23 05 be
       -0.16578768 0.11199503 -0.2932006 -0.13001953
0001f0 ee ee d2 3d 20 df 7d bd 5e a1 2a bd e2 eb 85 bd
       0.102994785 -0.061980367 -0.041657798 -0.06539132
000200 98 6f cf 3d 5e 85 45 3e 29 cc 03 3d 87 b0 6e bd
       0.10128707 0.19289157 0.032177124 -0.05827382
000210 4b cb 1d be de 90 33 3e 75 03 ee 3c 93 5b 8c bd
       -0.15409581 0.17535731 0.029054383 -0.06853404
000220 b7 4c 2e 3d 82 49 5c be 0f c9 06 be 32 0e 4f 3e
       0.04255363 -0.21512416 -0.13162635 0.20220259
000230 6f 83 fd bc 1b 1e eb 3c c1 14 42 be 02 09 c0 bd
       -0.030946461 0.028700879 -0.1895323 -0.09376718
000240 07 74 92 3c 40 de 69 be cc 88 19 bd cd 02 2f 3e
       0.017877592 -0.22838688 -0.037483975 0.17090912
000250 39 32 5d be 46 8e 46 3d dc 0b ea bd 6f e9 e4 bd
       -0.2160119 0.048475526 -0.11428043 -0.111773364
000260 e4 f2 d6 3d 5d 69 58 3e e0 80 49 bd c0 b2 cf bd
       0.104955465 0.21133943 -0.04919517 -0.10141516
000270 47 8f 65 be da 46 cf bd 8d a3 38 be a2 22 fb bd
       -0.22417937 -0.10120936 -0.1803114 -0.12262465
000280 e2 e9 32 3c 94 d7 79 be c5 95 16 3e 58 21 03 3e
       0.01092002 -0.24398643 0.1470557 0.12805688
000290 3d fb 03 be d6 b8 e8 bc fb 7c 07 3e 45 99 86 bd
       -0.12888809 -0.02840845 0.1323127 -0.065722026
0002a0 6d fc c0 bd fa 99 c5 bd 77 9f dd 3d c7 59 a1 bd
       -0.094231464 -0.09648509 0.10821431 -0.07878452
0002b0 6d cd 18 3e dd 15 3d bc f3 6e a1 3c 42 78 df 3d
       0.14922114 -0.011540857 0.019706225 0.10911609
0002c0 c0 32 9a bc e7 82 23 be 42 71 8d bd 16 76 2d 3e
       -0.018823028 -0.15967904 -0.06906368 0.16939577
0002d0 47 8e 7c be 94 02 2f bc fa 42 0e bf 88 ea 84 ba
       -0.2466365 -0.010681767 -0.5557095 -0.0010140697
0002e0 57 b3 d1 3e 77 cf c7 3d c4 1b 0b 3e da 97 dc bc
       0.40957138 0.09756368 0.1358481 -0.026927877
0002f0 58 3e c1 3d 4d 73 4c be 0f 90 6d be 9b a2 58 3e
       0.09435719 -0.19965859 -0.23199485 0.21155779
000300 51 a8 6b 3e 56 63 e1 3d b2 23 77 be b2 43 88 3d
       0.23013426 0.11005275 -0.2413471 0.06653537
000310 bf 88 f2 bc 66 e3 0a be fc be 9d be cd c7 b7 bc
       -0.029606221 -0.13563308 -0.30809772 -0.02243414
000320 0c f8 22 3e 16 28 53 3d 65 7a 29 be 3c 0d e3 3d
       0.15914935 0.0515519 -0.16550596 0.11086509
000330 41 0e e8 bc 9f 0f 56 3e 0b 90 18 be 19 7e f8 bd
       -0.02832711 0.20904396 -0.14898698 -0.12133426
000340 dd 0c 9b be b9 5d 3a bd 23 f1 a0 3d 43 75 5c 3e
       -0.3028325 -0.045499537 0.07858493 0.21529107
000350 33 1b 28 bd a2 ab 54 3e cd 9f 4b 3d 25 e5 c9 3d
       -0.041041564 0.20768598 0.049712945 0.09858159
000360 b6 20 34 3e 0f ae 39 3e ed d8 e8 bd 3d cd 36 3e
       0.17590603 0.18132804 -0.113695 0.1785173
000370 5d eb 14 3e a7 10 ee bd a0 fd ad bd 2f 87 5d be
       0.14542909 -0.1162427 -0.08495641 -0.216336
000380 a2 5f aa 3b 2b 5a 5b be db 97 48 3d f0 c3 ee 3d
       0.0051993886 -0.21421115 0.048972946 0.11658466
000390 3e 0a e2 bd 9e fe 72 3d f3 73 c9 3b 94 04 b7 3d
       -0.1103711 0.059324853 0.0061478554 0.0893642
0003a0 ce 90 44 3e 6c 85 5b be 2a 96 5b 3e cd 44 71 3e
       0.19195864 -0.21437615 0.21444002 0.23561402
0003b0 cb dc f1 3d 33 8c 48 be 5a 1b 9a bd 3f ac 01 bd
       0.11809691 -0.19584732 -0.07524748 -0.031658407
0003c0 e8 bf 99 3d ac 96 d2 3d 95 78 b1 3e 48 07 31 3e
       0.07507306 0.10282645 0.3466231 0.17287934
0003d0 ce 67 dd be 1e bf 68 3d a8 cd ab 3d b4 0a 37 be
       -0.4324326 0.05682289 0.08388835 -0.17875177
0003e0 d5 5e 84 be dc 60 a3 bc 70 0f 0e 3e e2 17 81 be
       -0.258536 -0.019943647 0.13873076 -0.25213534
0003f0 e5 31 8e be 3c f0 63 3e cf f4 72 3e c8 55 7f 3e
       -0.27772442 0.22259611 0.237262 0.24935067

hidden3.bias f4 [20]
000000 b0 00 47 3e 7c c4 55 3e 82 0e 08 3e 91 f2 7b 3e
       0.19433856 0.20875734 0.13286784 0.2460425
000010 53 fb 62 3e b1 80 9c 3e ce 20 6a 3d 24 8e c5 bd
       0.22166185 0.30566934 0.05716019 -0.09646252
000020 19 0e 95 be 0d 71 94 bd 38 f6 62 bd cb 33 a8 3c
       -0.29112318 -0.07248125 -0.055410594 0.02053251
000030 cc 9e f7 bc 9f 50 95 3d 77 7c 8c 3e c0 ae e9 bc
       -0.030227087 0.07290768 0.2743871 -0.02852571
000040 c7 b8 39 be 75 af 19 bb 0d 5b 09 be 1a 84 46 be
       -0.18136893 -0.0023450528 -0.1341364 -0.1938633

output.weight f4 [1, 20]
000000 86 a6 8c 3e ca 0f d3 3d 79 61 79 3e da ae 98 3d
       0.27470797 0.10305746 0.24353589 0.07455225
000010 5e c5 c3 3d d8 88 82 3d 75 e3 10 be 43 2a ac bc
       0.09559129 0.06373757 -0.14149268 -0.021016246
000020 47 59 cd bc da 76 64 be 09 24 50 be 1d 4b 32 3e
       -0.025066985 -0.22310963 -0.20326246 0.17411466
000030 37 19 88 3e 5b 6e 2f 3e 24 f4 92 3e 07 61 8e bd
       0.26581737 0.17131941 0.2870189 -0.069521
000040 25 0e 64 bd fd 09 80 3d 29 b5 c2 bd 46 71 cf bd
       -0.05567755 0.06251905 -0.0950721 -0.10129027
